integ-app/backend/app/model/image_projector.pt (torch, 592869 bytes, 2 tensors)

weight f4 [256, 576]
000000 f8 e2 40 3a 64 a0 a0 3b 4c bb 9e bb 65 1c 36 3d
       0.000735804 0.0049019326 -0.004844105 0.044460673
000010 4a d3 0a 3c d7 74 53 3c b0 e6 f6 3c cb 63 06 bd
       0.008473227 0.012906275 0.030139297 -0.032810014
000020 9a 9d 36 3d fc cb 79 3c 0f b2 05 bc ec 87 d8 bc
       0.044583894 0.015246388 -0.008160128 -0.026432
000030 a4 47 30 bd 89 47 2f bd be ee d9 3b 69 34 4e bc
       -0.04303707 -0.04279283 0.0066507747 -0.012585738
000040 63 cf ec 3c 9b 21 f6 3c 6e 34 9b 3c ec 33 7e 3c
       0.028907483 0.030045321 0.018945899 0.015515309
000050 bd 1d 17 bd 02 9d 22 bc 8f 12 45 3c e1 bc d1 3c
       -0.036893595 -0.009925129 0.0120283505 0.02560276
000060 13 4a 13 bd 16 5f e8 3c 64 9f 01 bd d4 81 3d 3c
       -0.035959315 0.028365653 -0.031646147 0.011566598
000070 aa 84 ee 3c 61 97 bf bc b3 7b 55 bc 4c 08 01 3d
       0.029115994 -0.023387613 -0.0130299805 0.031502053
000080 3d ad b4 3c 9b 50 e9 bb 3a 9a 28 3c 13 fc ee bb
       0.022055263 -0.0071202046 0.010290677 -0.007293233
000090 0c bd 1f 3d 27 d1 32 3b 09 8d 18 3d 82 4e a3 bb
       0.03899865 0.002728531 0.037243877 -0.004983724
0000a0 68 20 03 bd 8e d4 1a bd 64 32 88 bc b4 03 2a 3d
       -0.032013327 -0.037800364 -0.01662559 0.041507438
0000b0 2f 4a 23 3d de 9d d1 3c 8b 55 28 3c c1 98 60 bc
       0.03986567 0.025587972 0.010274301 -0.013708294
0000c0 ca 6b b4 3c ec f9 d3 bc be c2 c7 bb 39 af de bc
       0.022024054 -0.025876008 -0.006096213 -0.027183162
0000d0 8b cf a4 3b 1b 9b de 3b b9 d0 eb 3b 09 99 5f 3c
       0.005029624 0.0067933924 0.0071965125 0.013647326
0000e0 50 3d b1 3c 40 d6 cf bc 39 ab a8 bb 2f bf 91 3c
       0.021635681 -0.025370717 -0.0051473645 0.017791359
0000f0 7d 7d 0a 3d 89 8c 01 bd 97 a4 15 bc d0 70 0e 3c
       0.03381108 -0.031628165 -0.00913348 0.008693889
000100 c1 0b 1a 3d 62 04 2f bc 70 36 71 bc dc b2 27 3d
       0.037608866 -0.010682197 -0.014722452 0.040942058
000110 04 31 f8 3b 44 e0 23 3d bb 47 7c bc f8 53 12 bc
       0.0075742025 0.0400088 -0.015397961 -0.0089311525
000120 57 f7 2a bb 2e 4c a8 bc 85 0c 97 3c cc db 57 3c
       -0.0026087367 -0.020544138 0.018438587 0.013174962
000130 82 8e 02 bd f3 a3 88 ba 76 10 f1 bc 4a ce 10 3d
       -0.031874187 -0.0010424837 -0.029426794 0.035352983
000140 09 32 9e bb 7e fd a2 3b 87 60 fd bc d5 6f b9 bc
       -0.004827742 0.0049740663 -0.030929817 -0.022636333
000150 69 5e a3 3b 25 67 db 3c b9 dd 5d 3c 33 b6 1c bc
       0.00498562 0.026782582 0.013541632 -0.009564924
000160 42 40 80 3b 4e 7c d4 bc 75 6a f0 3c 1f 8c 2b bc
       0.00391391 -0.02593818 0.029347638 -0.010470419
000170 07 56 ea 3c f2 6c 0c 3d 8a 51 0c 3d 93 57 a8 bb
       0.028605474 0.034283586 0.03425745 -0.005137393
000180 3f e1 d7 bc 23 e0 ba bc 84 73 d0 bc f1 fa 29 3c
       -0.026352523 -0.022811955 -0.025445707 0.0103747705
000190 ba 9a 13 bd 9f fc 26 bc 95 30 f7 ba 50 83 c3 bc
       -0.03603623 -0.0101920655 -0.0018859083 -0.023866326
0001a0 dd 79 46 3d e1 1e ce bc c9 42 f0 3c 06 c9 b6 3c
       0.04845606 -0.025161209 0.02932872 0.022312652
0001b0 08 8b 1d 3c 05 c7 0c 3d 89 4c 13 bd fe 27 0a bd
       0.009615667 0.034369487 -0.03596166 -0.033729546
0001c0 18 1a 74 3c 71 46 15 bd 89 a1 ca 3c 6b 16 ef bb
       0.014898799 -0.03644413 0.02473523 -0.0072963736
0001d0 36 8a db bc ad 7f 0a 3d a4 04 46 3c cf 6b 88 bc
       -0.026799303 0.033813167 0.012086067 -0.01665297
0001e0 77 1c e5 bc 0f 03 8f 3c 3b 9e fc 3b 6d 5f 26 bd
       -0.027967675 0.017457513 0.007709292 -0.04061835
0001f0 f5 78 35 bd 5b 31 e3 bb 86 af 94 bb 75 08 09 3d
       -0.044304807 -0.006933374 -0.0045375256 0.03345533
000200 39 c1 b7 3c cc de 10 bd 96 e0 af bc f2 5d 25 bd
       0.022431003 -0.035368726 -0.021469396 -0.040372796
000210 7e 77 98 bc 05 4e 88 bb 16 c9 04 bd 8e 47 74 3c
       -0.018611666 -0.0041596913 -0.032418333 0.014909638
000220 15 70 35 bb d2 fd cc bc 8b e9 69 bc fa 66 86 3b
       -0.0027685214 -0.025023375 -0.014276872 0.004101631
000230 5d 8e 77 3c 8f 26 ca 3c 2d 99 ae bc 7e 46 14 3b
       0.015109626 0.02467659 -0.021313274 0.0022625024
000240 25 8c a0 3c 67 da 9d 3c d1 23 e6 3c eb 18 35 3c
       0.019598076 0.019269181 0.02809325 0.011053304
000250 7f 72 a3 bb 16 69 b8 bc d2 99 1e 3c 9d c3 97 3c
       -0.004988014 -0.022511046 0.009680228 0.018525893
000260 aa b7 12 bd f9 7d 0c bd 32 b7 72 bc 2d d8 a2 3c
       -0.035819687 -0.034299824 -0.014814185 0.019878471
000270 11 8a b5 bc 43 fc db bb 9c a8 bd bc 7f b8 12 bc
       -0.022160562 -0.0067134215 -0.023151688 -0.00895512
000280 b0 77 d6 bb 5c 84 ba bb 99 63 d1 bc 8a ca d1 ba
       -0.0065450296 -0.005692048 -0.025560187 -0.0016005796
000290 c5 66 95 bc 1d 36 31 3d d8 6f e2 3c 62 81 2e 3d
       -0.01823748 0.043264497 0.027641222 0.042603858
0002a0 a4 d3 ef 3b 73 50 55 3c 4d db a4 bc 9f 53 ea 3c
       0.0073189307 0.013019669 -0.020124102 0.028604327
0002b0 60 4b 45 bc 10 a7 38 bc 55 21 c0 3c 22 ec 1e 3d
       -0.012041897 -0.0112703 0.023453394 0.038799413
0002c0 a9 f0 0e bd bd 1c 6f 3c 61 d1 82 bc 17 f3 d1 bc
       -0.03489748 0.014594254 -0.01596898 -0.02562861
0002d0 04 2c ca ba a9 38 e1 3c 37 47 70 3b 22 d2 ef 3b
       -0.0015424495 0.027492838 0.003666354 0.007318751
0002e0 b1 fb 87 ba 3f 49 c8 3c 33 61 b0 3c bd 7d a5 bc
       -0.0010374693 0.024448989 0.021530723 -0.020201558
0002f0 bb eb e2 3b a5 e6 18 3a b0 6d 1d 3c 2f 89 15 3d
       0.006925074 0.00058327086 0.009608671 0.03650778
000300 c4 29 e2 bc d6 75 dd 3b c4 d4 0a bd d4 25 c9 bc
       -0.027607806 0.006758432 -0.033894315 -0.02455417
000310 d4 0c de ba a6 70 28 3b 6e 67 d3 bc 64 af bb bc
       -0.0016941079 0.002570191 -0.025806155 -0.022910781
000320 15 5f ba 3c dd fb 2e 3c b3 c4 05 bd 35 3e 06 bd
       0.022750417 0.010680166 -0.03265829 -0.03277417
000330 79 70 fd 3b 29 d4 1a 3d a0 62 d4 bc 03 4f 26 3d
       0.007734355 0.037799988 -0.025925934 0.040602695
000340 a4 c2 3b 3c 7c e9 0a 3c a5 3e 77 bc 8a ce b9 bc
       0.01145998 0.008478519 -0.015090619 -0.022681493
000350 3b 3e 8e 3c 73 b6 c5 3b fb 03 b3 bb 54 61 43 3c
       0.017363658 0.0060337125 -0.005463121 0.01192506
000360 10 ef 61 bc b6 b7 06 bd 40 0d 05 3d 04 f8 8d bb
       -0.013789907 -0.032890044 0.03248334 -0.0043325443
000370 74 e2 57 3c 98 6e 8f bc 2f 26 a0 bb e2 29 b6 3c
       0.013176549 -0.01750879 -0.0048873643 0.022236768
000380 86 ff 52 3c 30 8f cf bb e5 04 30 ba cf 7b 65 3c
       0.012878304 -0.006334208 -0.00067145965 0.014006569
000390 3c 5b b9 bc 10 65 73 3c 33 24 70 bc a8 e2 29 3d
       -0.022626512 0.014855638 -0.014657068 0.041475922
0003a0 40 66 09 ba f6 87 a6 bc 40 27 44 3c 27 c1 eb ba
       -0.00052413717 -0.020328503 0.011972249 -0.0017986641
0003b0 2d 82 1d bd 2e 6f a5 bb 03 65 f0 bb 88 70 a4 bc
       -0.038454223 -0.005048654 -0.0073362603 -0.02007319
0003c0 11 da 00 3c de 90 01 3d ed 75 04 bd 27 03 7b 3c
       0.007864491 0.031632297 -0.032339025 0.015320576
0003d0 e4 89 66 bc 7c ec d1 bb 20 51 84 bc a2 7e 9c bc
       -0.014070962 -0.006406365 -0.016151965 -0.019103352
0003e0 62 99 11 3d 0c 30 6d bc a8 11 32 bc 87 64 cf bc
       0.035546668 -0.014476787 -0.010868467 -0.02531649
0003f0 88 bd 97 ba 36 36 5e 3c 3a 54 1c bd bf 5b c3 3b
       -0.001157687 0.01356273 -0.038166262 0.0059618647

bias f4 [256]
000000 b2 b7 68 bc 2a 7c ed bc 84 97 0e 3d e6 c9 7e bc
       -0.014203953 -0.02898987 0.034812465 -0.015551066
000010 f9 08 5e bc 3a f3 3f 3c 9a 38 80 3b 84 97 12 3d
       -0.013551944 0.011715705 0.0039129974 0.035789028
000020 e6 eb 34 3d 99 f9 17 bd a8 2c b5 3c a3 74 18 bd
       0.044170283 -0.03710327 0.02211602 -0.03722061
000030 39 cb 87 3c 0c 1b 85 3c 51 51 b9 3c 19 45 f3 3c
       0.016576396 0.016248249 0.022621782 0.029696034
000040 26 04 a6 3c 2b 94 20 3d 55 77 ae bb 6b ad 30 3c
       0.02026565 0.039203804 -0.005324284 0.010783534
000050 9e 4e e4 3c 28 46 a5 bc 7a c3 13 bd 8b 04 8e 3b
       0.027869519 -0.020175055 -0.036075093 0.0043340377
000060 e6 d5 f3 3c 26 2b cc 3c e4 d8 ed b9 c0 f7 88 bc
       0.02976508 0.024922919 -0.0004536576 -0.016719699
000070 6d f3 19 3d dd 45 18 3c 8d f9 ac bb bf 7e bb bc
       0.037585665 0.009294 -0.005278772 -0.022887586
000080 b2 b3 1d bd 07 77 1c bd da d9 cb bb 43 0d 9c 3c
       -0.03850145 -0.03819945 -0.0062210383 0.019049292
000090 7b e7 d9 3c 0b 03 3a bc 6d 20 fd 3c ff 06 b6 3b
       0.026599636 -0.011353265 0.03089925 0.005555033
0000a0 28 ab d5 bc c1 63 c7 bb 8f 9a a4 3c c9 87 63 bc
       -0.02608259 -0.0060848896 0.02009323 -0.013887354
0000b0 1a dd bf 3b 1c 67 26 3d 84 aa 0f 3d 20 9f 96 bc
       0.005855215 0.040625677 0.035074726 -0.018386424
0000c0 ec f5 a8 bb 46 ad 44 3b 62 a4 1a 3d e8 35 78 3c
       -0.0051562693 0.0030010506 0.037754424 0.015149571
0000d0 2f 50 b0 3c 94 2f 33 bc 7d 83 0a bd 60 62 a7 3b
       0.02152261 -0.0109366365 -0.033816803 0.0051081628
0000e0 ea 22 0f 3d ba bb 09 3d 99 53 02 bd 60 dc 68 3c
       0.034945406 0.033626296 -0.031818006 0.014212698
0000f0 38 dc 22 3c 8c 70 0a bc 75 21 03 3d 07 65 19 bd
       0.0099402 -0.008449685 0.03201433 -0.037449863
000100 21 39 ba 3c 1f e4 d8 3c 07 2c ba 3c 1d 99 d5 3b
       0.02273232 0.026475964 0.022726072 0.0065184967
000110 c5 4d 09 bd 58 40 15 bc e0 40 06 bd 5d bd 12 bd
       -0.033521432 -0.009109579 -0.032776713 -0.035825122
000120 ca 9c 1d 3d 2e 6e 39 bc f2 1a 08 3d fe 28 fb bb
       0.038479604 -0.011317773 0.033228822 -0.0076647988
000130 3a 11 d5 3c d7 1d 6d 3c b8 50 85 3b 80 49 ed bc
       0.02600919 0.014472446 0.0040684603 -0.028965712
000140 14 4d 38 3c 6c e3 96 3c 18 43 0b 3a 8e f6 ad bc
       0.011248846 0.01841899 0.0005312427 -0.02123573
000150 66 ef 96 bc e9 d4 03 3d a7 00 46 3a 50 60 b9 3c
       -0.018424701 0.03218547 0.0007553198 0.022628933
000160 44 1b 05 3d 9e dd 91 bb f8 84 83 3c af 60 f0 3b
       0.032496706 -0.0044514677 0.016054615 0.0073357443
000170 7a 9e ad 3c 97 99 8e bc ce dd 2a 3c cd 58 4e 3c
       0.021193732 -0.017407222 0.010428859 0.012594414
000180 6c fc cc bc c2 70 9f 3b 7b ee b9 3c c4 c1 4d bb
       -0.025022708 0.0048657367 0.022696724 -0.003139601
000190 18 b7 14 bd ff 09 f3 ba ce d2 04 bd 0d 7b ea bc
       -0.036307424 -0.0018542408 -0.0324276 -0.028623128
0001a0 97 42 e7 bc 19 59 74 bc 7d ff e2 37 d2 f6 95 bb
       -0.028229995 -0.014913821 2.706027e-05 -0.0045765424
0001b0 1f 00 43 bc 49 8e 61 bc 38 fc 4f bc aa a5 80 bc
       -0.011901884 -0.013766834 -0.012694411 -0.015703995
0001c0 bc d2 23 bd 35 5d 9a bc 0b 58 96 3b 1e ca 96 bc
       -0.039995894 -0.018843273 0.0045881323 -0.018406924
0001d0 56 d5 7e bc 6a 14 c7 bc 6c e7 3d 3c 0c 0a 40 bc
       -0.015553793 -0.024301726 0.01159082 -0.011721145
0001e0 e1 c6 e2 3b 1a 5e 0e 3b 30 aa b1 3b 2a ca cd bc
       0.006920681 0.002172357 0.0054218993 -0.025120813
0001f0 02 75 cb 3c 1c e6 56 3c 28 b9 20 bd 81 9e ae bc
       0.024836067 0.013116386 -0.03923908 -0.021315815
000200 c9 f2 03 bd 99 9d 64 3c 73 bc ab bc e2 02 9d bc
       -0.03221396 0.01395359 -0.020963883 -0.019166414
000210 16 95 15 bc 5a 44 00 bd 64 82 ab 3c b3 bb 88 bc
       -0.009129783 -0.031315185 0.020936199 -0.016691064
000220 43 b3 2b 3d 09 86 47 3d a7 78 05 3b 05 5f 36 3c
       0.041919004 0.04871181 0.0020366104 0.011131053
000230 7e 84 cb bb 86 55 19 3d 43 57 c4 3c 06 19 aa 3c
       -0.0062108627 0.037435077 0.02396739 0.020763885
000240 d8 b3 a3 bc e1 4e a5 3c 63 1d f7 bb ba b2 2c 3b
       -0.019983217 0.020179214 -0.007541345 0.0026351647
000250 65 5d cb 3c a5 a5 f2 bb b4 d6 29 bc 13 7d e2 bc
       0.024824807 -0.0074050003 -0.010366131 -0.02764753
000260 7b 71 07 bd 44 7e 3b bc 43 d8 61 ba 4f 56 f8 bc
       -0.033067208 -0.011443678 -0.00086152944 -0.030314593
000270 27 74 1d bd 32 39 06 3d 87 32 31 3b 33 b8 ea 3c
       -0.03844085 0.03276939 0.0027038173 0.028652286
000280 79 3b 56 bb 9f 59 05 3d a0 3e e7 bc a8 5b 98 bb
       -0.0032689257 0.032556172 -0.028228104 -0.004649598
000290 a9 76 a9 bc b7 92 1c bd 00 5b b3 bc 4a 3f 23 bc
       -0.020686464 -0.038225856 -0.021893978 -0.00996382
0002a0 8a 0d d2 3b 0e a9 35 3b 68 d1 9d 3c 9d fb 88 3b
       0.0064103054 0.0027719173 0.019264892 0.0041803853
0002b0 99 15 09 3c 4f b1 0f bd 82 01 10 3d 14 85 22 3d
       0.008366966 -0.035081204 0.035157688 0.039677694
0002c0 3c 51 4f bc 99 97 7f 3c 04 01 fa ba 32 fa 43 3c
       -0.012653645 0.015600109 -0.0019073789 0.011961507
0002d0 d5 6e 11 3d ad f6 08 3d 95 0d 44 3c 4f 80 fb 3b
       0.03550609 0.033438373 0.011966129 0.0076752077
0002e0 ad 5f 01 3d 3f ce 9b bb f4 77 2d 3d 64 fd 43 3c
       0.031585384 -0.004754811 0.042350724 0.0119622685
0002f0 83 81 21 bd 1f b9 d0 3b b6 1d a2 3c b1 3e a6 3c
       -0.039430153 0.0063697244 0.019789558 0.020293565
000300 8c b1 81 bc 2f 56 ff 3c ed 8c 52 bc 9e 00 e5 3c
       -0.015831731 0.031169025 -0.012850982 0.027954396
000310 27 ff d3 3c 22 49 b3 bc 3f bc 43 3b a4 46 91 bc
       0.025878502 -0.021885458 0.0029866842 -0.01773388
000320 03 7c ee bb ee d5 79 3b 35 70 d2 ba 82 8b cd 3c
       -0.007277967 0.0038121897 -0.0016055169 0.025090937
000330 21 65 49 3b 5c 92 36 bc 1d 6d 4b bc 36 9c 21 bd
       0.0030730444 -0.011143293 -0.012416151 -0.039455615
000340 49 96 05 bd 5a a0 15 bd eb 4c 7a 3c 16 0d cb 3b
       -0.032614026 -0.036529876 0.015277128 0.0061966283
000350 70 c4 8e 3b ed e7 5c bc e1 f4 dc 3a 11 aa b4 3a
       0.0043569133 -0.01348303 0.0016857648 0.0013783594
000360 8d 0d 23 bd d6 4c 92 3c 4b 28 82 3c 9b 35 82 3c
       -0.039807845 0.017858904 0.015888354 0.015894702
000370 3e 4b a0 3b e0 28 8e bc 37 15 17 3c 81 07 69 3c
       0.004891782 -0.017353475 0.009221367 0.0142229805
000380 1b 08 f9 3c 57 70 08 3d 1c 69 7c bb dc 86 0e bb
       0.030399373 0.03331026 -0.0038514799 -0.0021747863
000390 47 31 34 3c de 6c f1 3b 4e f8 3e bc e8 bd dd 3c
       0.010998077 0.0073677143 -0.01165588 0.027068093
0003a0 1f 8d d4 3c 40 ce 04 3d 39 79 ff bb 13 9b 11 bd
       0.025946198 0.032423258 -0.0077964333 -0.03554828
0003b0 21 22 dd 3b a5 a8 c8 3c 6a cd 10 3d bf 4f 02 3d
       0.0067484532 0.024494478 0.035352148 0.031814333
0003c0 c7 55 89 3c 0c 20 c6 bc 3a fd 90 3c 8b 6b 22 bd
       0.016764535 -0.024185203 0.017698873 -0.039653342
0003d0 d7 7b 9a bb 9a 2b a0 bc a7 8f 9d 3c d8 87 2c 3d
       -0.00471447 -0.01955204 0.019233538 0.04212174
0003e0 35 31 da 3c 21 1b 0b 3c 94 79 18 3d 4c 04 64 3c
       0.026634792 0.008490355 0.03722532 0.01391704
0003f0 21 0a 07 bc f1 ab 0c 3d e9 04 0c bc e9 5f 10 bc
       -0.008242161 0.034343664 -0.008546093 -0.008811929
