integ-app/backend/app/model/text_projector.pt (torch, 396253 bytes, 2 tensors)

weight f4 [256, 384]
-0.044283114 -0.027356176 0.032278277 -0.018532354 0.04040953 0.020104352 -0.03744361 0.008634794
-0.03597135 -0.045633875 0.045765694 -0.042107232 -0.0028531689 0.05708246 -0.00696732 0.036463823
-0.0057691988 0.021233229 0.04482654 0.008281574 -0.024841819 -0.027578885 0.021695508 0.05180077
-0.016616879 0.043959502 -0.0019125988 0.056542516 0.0027194275 -0.008953126 -0.026004458 0.029865379
-0.016712891 -0.0079971105 0.05881944 0.018520636 -0.021438928 0.03468 0.020464022 0.03768576
0.03211495 -0.007116097 0.021959191 0.006041629 -0.022788936 -0.010627392 0.039574645 0.052543275
0.0014462338 0.019337544 -0.040939912 0.022292735 0.000119831246 0.022552367 -0.0016591132 0.035852157
-0.05115652 0.029586453 -0.010467162 0.016174396 0.008015704 0.03786304 0.035769027 -0.016606119
0.043500103 0.009371657 0.037209596 0.00055628136 0.0363952 -0.032596108 -0.013116641 -0.03113188
0.0114519 -0.028374206 -0.026356127 0.02190547 -0.030974088 0.022994192 -0.008896134 0.03730155
-0.036239244 0.03605433 0.03674482 -0.026989056 0.02405331 0.050994623 0.026748745 0.03366942
0.03436726 -0.052473985 0.026156763 -0.00919771 0.021560535 -0.0067144544 0.043469954 -0.011335284
-0.011063989 0.0052754884 0.021965308 -0.024470126 -0.03032319 -0.04730146 -0.039092522 0.036847852
-0.035358112 0.029491836 -0.04693199 -0.050261248 0.03145399 0.0066382377 0.017373795 -0.012443061
0.042500623 -0.044981007 -0.013327153 -0.019849787 0.022973912 -0.052420408 -0.021785028 0.038577568
-0.04794924 -0.017561726 -0.027165914 0.02521011 0.0373165 0.0076962193 -0.022800118 -0.040520567
0.03708765 -0.0142274285 -0.019030727 -0.0034350723 0.036875002 -0.05158409 0.015887288 -0.0318047
-0.028778806 0.016491542 -0.026804296 0.03194285 0.03222466 0.0034119035 0.005472907 -0.03731321
0.004048417 -0.04852447 0.00026912638 -0.03175648 0.0051838453 0.009319469 0.013963283 0.002807013
-0.0134445 0.049612347 0.032202024 -0.04475296 0.01774473 0.043567564 0.015907198 -0.0074635167
-0.0066014193 0.03157488 -0.0027415473 0.049946625 0.009670574 0.050322685 -0.052151237 -0.041634224
-0.019379599 0.012403152 -0.032251824 0.0024548874 -0.01363896 -0.023385517 -0.021719012 0.0025678612
0.028097808 -0.008814962 0.015974913 0.0028791039 0.013994482 0.043484546 -0.027439684 0.0059272246
-0.048510082 0.005456353 0.040142655 0.00891952 0.040641326 0.03980832 0.014704494 -0.00010463689
0.017061329 -0.029563809 -0.02008899 0.024490952 0.022811526 -0.01566439 -0.0063250815 -0.03787374
0.004054786 0.0065710046 -0.013696957 0.028948978 -0.011633486 0.03486538 0.03535935 -0.0010096501
0.03790058 -0.022298034 0.0016446423 -0.0052618026 0.018578188 0.039168477 -0.019574465 0.017018778
-0.03500532 -0.023389531 -0.011990021 0.0064451005 0.02974408 0.007724842 0.0030404238 -0.03662594
0.04669921 0.0263087 0.003185716 0.008158435 -0.00915808 -0.014576909 -0.029166307 -0.0014465216
0.020858865 0.040152032 0.042066216 0.027269937 0.009747239 0.00990201 0.011250749 0.03564234
-0.02184239 -0.00077216164 0.039586455 -0.044925846 0.024769776 0.00093073526 -0.051179163 -0.016032498
0.010027493 0.007993899 -0.009979616 -0.053327065 0.026919123 0.0019859252 0.015290282 0.02217309
00000000: 3662 35bd 0f1a e0bc 3a36 043d 2ad1 97bc
00000010: 7784 253d e2b1 a43c 795e 19bd f378 0d3c
00000020: b256 13bd 96ea 3abd cf74 3b3d a278 2cbd
00000030: 3bfc 3abb 4ccf 693d 1e4e e4bb 175b 153d
00000040: 8c0b bdbb 4ff1 ad3c 099c 373d 70af 073c
00000050: 1281 cbbc 1ded e1bc c7ba b13c 0b2d 543d
00000060: 1f20 88bc e10e 343d 2bb0 faba 2099 673d
00000070: 6c38 323b 22b0 12bc 4d07 d5bc 3da8 f43c
00000080: 79e9 88bc 5006 03bc a7ec 703d 97b8 973c
00000090: b1a0 afbc 9e0c 0e3d 2aa4 a73c 625c 1a3d
000000a0: f78a 033d 262e e9bb c3e3 b33c dbf8 c53b
000000b0: ddaf babc 831e 2ebc 0619 223d 9e37 573d
000000c0: 8e8f bd3a c569 9e3c 9cb0 27bd 419f b63c
000000d0: e94d fb38 bebf b83c 9a76 d9ba b6d9 123d
000000e0: 8089 51bd 4a5f f23c 767e 2bbc 2b80 843c
000000f0: 4d54 033c 4616 1b3d 8b82 123d 8e09 88bc
00000100: 2a2d 323d 948b 193c 1769 183d 69d3 113a
00000110: 2213 153d 7f83 05bd 2ee7 56bc 4908 ffbc
00000120: c0a0 3b3c 0671 e8bc cee8 d7bc 1a73 b33c
00000130: 5fbd fdbc 515e bc3c 17c1 11bc 83c9 183d
00000140: 9a6f 14bd b5ad 133d bd81 163d 2718 ddbc
00000150: 720b c53c bddf 503d 2f20 db3c f2e8 093d
00000160: afc4 0c3d f6ee 56bd b546 d63c feb1 16bc
00000170: b89f b03c ed04 dcbb 8d0d 323d a1b7 39bc
00000180: bc45 35bc 01de ac3b 97f0 b33c 9375 c8bc
00000190: 5768 f8bc 2dbf 41bd 7b1f 20bd c6ed 163d
000001a0: abd3 10bd dd98 f13c c23b 40bd bdde 4dbd
000001b0: e6d5 003d 9385 d93b 7d53 8e3c fbdd 4bbc
000001c0: 2215 2e3d 013e 38bd 225a 5abc 059c a2bc
000001d0: c933 bc3c c8b6 56bd 8476 b2bc 8303 1e3d
000001e0: 6c66 44bd 9cdd 8fbc 0d8b debc 6f85 ce3c
000001f0: 30d9 183d 9130 fc3b 50c7 babc e5f8 25bd
00000200: 38e9 173d 291a 69bc 54e6 9bbc f31e 61bb
00000210: 3e0a 173d d749 53bd 0f26 823c a545 02bd
00000220: 88c1 ebbc 4519 873c af94 dbbc 82d6 023d
00000230: 01fe 033d 3e9a 5f3b 1256 b33b bdd5 18bd
00000240: 95a8 843b 98c1 46bd 8819 8d39 1513 02bd
00000250: 3fdd a93b b0b0 183c 41c6 643c ddf5 373b
00000260: 5246 5cbc 5136 4b3d 45e6 033d e14e 37bd
00000270: 655d 913c e773 323d d04f 823c 8490 f4bb
00000280: b850 d8bb a954 013d 88ab 33bb d594 4c3d
00000290: 5471 1e3c 291f 4e3d 899c 55bd a688 2abd
000002a0: f7c1 9ebc 9736 4b3c 7d1a 04bd 2de2 203b
000002b0: f275 5fbc fc92 bfbc 12ec b1bc 9049 283b
000002c0: 602d e63c a16c 10bc d2dd 823c 59af 3c3b
000002d0: 1d49 653c da1c 323d 30c9 e0bc 2a39 c23b
000002e0: 82b2 46bd 35cb b23b a06c 243d 2e23 123c
000002f0: 8577 263d 0d0e 233d 1eeb 703c 8170 dbb8
00000300: 33c4 8b3c cd2f f2bc aa91 a4bc 40a1 c83c
00000310: 3ddf ba3c 9b52 80bc a142 cfbb 7f21 1bbd
00000320: 03de 843b 9551 d73b 3469 60bc 6826 ed3c
00000330: 609a 3ebc 00cf 0e3d f7d4 103d 3c56 84ba
00000340: a33d 1b3d 5eaa b6bc 0a91 d73a 336b acbb
00000350: 4931 983c 206f 203d a15a a0bc f76a 8b3c
00000360: bd61 0fbd 679b bfbc cb71 44bc 6c31 d33b
00000370: dba9 f33c ac20 fd3b d941 473b 1505 16bd
00000380: ac47 3f3d 5885 d73c 72c7 503b f5aa 053c
00000390: c60b 16bc fdd3 6ebc 2eee eebc 3699 bdba
000003a0: 36e0 aa3c 7576 243d a04d 2c3d 3465 df3c
000003b0: e2b2 1f3c 0a3c 223c 1055 383c b4fd 113d
000003c0: d0ee b2bc e46a 4aba 6825 223d 2a04 38bd
000003d0: fce9 ca3c 96fc 733a 3ea1 51bd 9656 83bc
000003e0: 5b4a 243c d8f8 023c 8b81 23bc 7b6d 5abd
000003f0: 7e85 dc3c 4c26 023b 1784 7a3c 57a4 b53c

bias f4 [256]
0.04751003 0.028223434 -0.04541553 0.015319176 0.003387628 -0.019676931 -0.017274458 -0.017437294
0.023886258 0.03613186 -0.028733939 -0.030459294 -0.047979597 -0.042406738 0.020701498 -0.028500836
0.025711875 0.043169662 -0.048723515 0.046849012 -0.0050880685 0.041683048 -0.0054909005 -0.015036305
-0.028229332 0.025203234 0.0053062 0.03618536 0.01731872 -0.029459355 -0.016623247 -0.00843828
-0.0040351623 0.02062259 0.0020109285 -0.029077569 0.02794906 -0.023792455 0.00014356502 -0.040636297
0.021306176 0.024953777 0.013573288 -0.0084570665 -0.012840579 0.002776624 -0.044593062 0.045245614
0.04051279 -0.018641043 -0.033988148 -0.028088817 -0.015450012 -0.03030677 -0.041887257 0.0031860233
-0.012121713 0.019362595 0.027012032 0.013518581 -0.0304335 0.032445062 0.043905597 0.012494581
-0.018058244 0.02965129 0.013906646 -0.04756916 -0.03981124 0.03581794 -0.033640612 -0.028577564
-0.045199532 0.00039157187 -0.012146881 -0.031711724 0.04041188 0.0038242664 0.028517675 0.031390525
0.01274818 -0.027153473 -0.02814456 -0.035366032 -0.041591894 -0.019898698 0.0050600357 -0.040892042
-0.047179997 -0.028242657 0.02244733 -0.019157985 0.030526426 0.042543184 -0.03690367 -0.038521208
0.010650939 -0.0036524804 -0.019113692 -0.01923247 0.030346375 -0.018008431 -0.007545904 0.028517086
-0.013702867 0.018401084 0.016103195 0.011378115 -0.01591436 -0.03665238 -0.010956331 0.05697235
0.041905705 0.04720151 0.008078227 -0.013202102 -0.0017307048 0.050517607 0.021948505 -0.032664612
-0.040715996 -0.014014005 -0.015423079 -0.008590473 0.04354973 0.013204225 -0.022396512 -0.014385943
-0.04725629 0.04450863 0.013800317 0.008775634 -0.036559638 0.013115581 -0.03857521 0.037750326
-0.013308453 0.04538305 -0.0010530971 0.042047117 -0.013272039 -0.027622528 -0.0008334971 -0.025312975
0.023340471 -0.007997786 -0.020749096 0.0037556528 -0.014575494 -0.030616034 -0.0036991287 -0.004624001
0.037773397 0.04581751 -0.035699785 -0.03914291 0.035506647 -0.018492956 0.02397481 0.042884797
-0.030414017 0.040982887 -0.02769759 -0.04669849 0.01292616 -0.039697 -0.023206735 0.03270349
-0.016383788 -0.029228892 0.04387878 -0.019983463 0.028833883 -0.04519072 -0.014889155 -0.049989358
-0.030936155 0.040087447 -0.02873856 -0.03665434 -0.015673863 0.018142505 0.038447976 0.038796283
0.020833146 0.0034664476 0.03221717 -0.004741038 0.0021233642 0.02712384 -0.035400443 -0.044547606
-0.01898467 -0.040507376 -0.033380546 -0.048899632 -0.04245709 0.041600097 0.0016637045 0.015912943
0.036297712 -0.03218665 -0.042987354 -0.011387663 -0.036617927 -0.038880497 -0.03973645 -0.04039522
-0.0018563913 -0.029896319 0.047570564 -0.007051039 -0.0060517164 -0.044220645 0.006570458 -0.012660602
0.03147677 -0.03554695 0.021766126 -0.018432727 0.0046309424 0.035406977 -0.046688143 -0.0054903305
0.034953367 0.03707208 -0.0087732095 -0.024153648 0.026143752 0.026125854 -0.047900543 0.031766344
0.031360935 -0.0024465374 -0.016714359 0.0118437195 -0.0067758756 -0.026790503 -0.029004907 0.023232393
0.03337608 0.011879526 -0.04821194 -0.01717131 -0.015811412 -0.018943574 0.048100296 0.024378045
0.028898316 0.014446552 0.02900602 -0.030314619 0.035413027 -0.010336286 -0.036226638 -0.022198256
00000000: e199 423d d534 e73c a305 3abd 48fd 7a3c
00000010: f702 5e3b 8431 a1bc 2a83 8dbc a8d8 8ebc
00000020: 1dad c33c 00ff 133d 7063 ebbc c585 f9bc
00000030: 4186 44bd b0b2 2dbd 3096 a93c 967a e9bc
00000040: b6a1 d23c acd2 303d 4f92 47bd c0e4 3f3d
00000050: d0b9 a6bb d8bb 2a3d 03ed b3bb d65a 76bc
00000060: 3341 e7bc 0377 ce3c a2df ad3b 1a37 143d
00000070: fddf 8d3c bf54 f1bc 7a2d 88bc b640 0abc
00000080: 6539 84bb b5f0 a83c c8c9 033b 1534 eebc
00000090: 6df5 e43c 65e8 c2bc f189 1639 3f72 26bd
000000a0: 4a8a ae3c dd6b cc3c 7f62 5e3c 828f 0abc
000000b0: 4b61 52bc 05f8 353b 37a7 36bd 7753 393d
000000c0: bdf0 253d 1ab5 98bc 2837 0bbd 851a e6bc
000000d0: 0c22 7dbc e745 f8bc f991 2bbd 9acc 503b
000000e0: 269a 46bc 4e9e 9e3c 5648 dd3c 0a7d 5d3c
000000f0: ad4f f9bc 1de5 043d 5bd6 333d 12b6 4c3c
00000100: e2ee 93bc 43e7 f23c b3d8 633c e1d7 42bd
00000110: 1c11 23bd d5b5 123d bdca 09bd 7f1b eabc
00000120: 2523 39bd e34b cd39 b603 47bc 27e4 01bd
00000130: ed86 253d 8ba0 7a3b e69d e93c 5a93 003d
00000140: bedd 503c f670 debc 6c8f e6bc f9db 10bd
00000150: 435c 2abd 9802 a3bc a8ce a53b 6a7e 27bd
00000160: d03f 41bd 255d e7bc 77e3 b73c 35f1 9cbc
00000170: 8e12 fa3c c341 2e3d 4d28 17bd 6ac8 1dbd
00000180: 4781 2e3c 745e 6fbb 5194 9cbc 6a8d 9dbc
00000190: f698 f83c 6b86 93bc a143 f7bb aa9c e93c
000001a0: fd81 60bc dfbd 963c d9ea 833c 466b 3a3c
000001b0: d55e 82bc ce20 16bd 2f82 33bc d75b 693d
000001c0: 51a5 2b3d 5f56 413d 8a5a 043c a14d 58bc
000001d0: d1d8 e2ba 8deb 4e3d 5acd b33c 54cb 05bd
000001e0: d1c5 26bd ff9a 65bc 15b1 7cbc 0ebf 0cbc
000001f0: 3461 323d 8956 583c e478 b7bc 05b3 6bbc
00000200: d08f 41bd ae4e 363d ba1a 623c adc7 0f3c
00000210: 8fbf 15bd bce2 563c 0a01 1ebd 16a0 1a3d
00000220: b30b 5abc 94e3 393d 1308 8aba 9939 2c3d
00000230: f772 59bc a448 e2bc 0b7f 5aba 285d cfbc
00000240: 8434 bf3c 2509 03bc 02fa a9bc 6621 763b
00000250: 0ece 6ebc 7ace fabc 156d 72bb ef84 97bb
00000260: 47b8 1a3d 24ab 3b3d f039 12bd 5154 20bd
00000270: 6b6f 113d 8a7e 97bc d266 c43c f8a7 2f3d
00000280: d126 f9bc acdd 273d 0ee6 e2bc ea46 3fbd
00000290: 3fc8 533c 5299 22bd 0d1c bebc 18f4 053d
000002a0: 4b37 86bc 6e71 efbc 3cba 333d 5cb4 a3bc
000002b0: 0935 ec3c e819 39bd a4f1 73bc a4c1 4cbd
000002c0: d26d fdbc bc32 243d 216d ebbc dc22 16bd
000002d0: 7966 80bc 979f 943c a07b 1d3d dae8 1e3d
000002e0: 46aa aa3c 572d 633b 27f6 033d b65a 9bbb
000002f0: 2428 0b3b d132 de3c 0e00 11bd 8d77 36bd
00000300: bd85 9bbc 10eb 25bd 0aba 08bd fb4a 48bd
00000310: 7ce7 2dbd dd64 2a3d a910 da3a dc5b 823c
00000320: e9ac 143d 26d6 03bd 8213 30bd 5293 3abc
00000330: aefc 15bd 2841 1fbd b0c2 22bd 7575 25bd
00000340: 2852 f3ba 20e9 f4bc 5ad9 423d 670c e7bb
00000350: 7a4d c6bb b520 35bd ff4c d73b 6a6e 4fbc
00000360: c9ed 003d ae99 11bd e04e b23c 3b00 97bc
00000370: 29bf 973b e806 113d 113c 3fbd 3be8 b3bb
00000380: 432b 0f3d e5d8 173d 82bd 0fbc dfdd c5bc
00000390: 6c2b d63c e305 d63c 5c33 44bd 6d1d 023d
000003a0: 5374 003d 1656 20bb 8dec 88bc 290c 423c
000003b0: 2a08 debb c277 dbbc b39b edbc dc51 be3c
000003c0: 5bb5 083d 58a2 423c e279 45bd d9aa 8cbc
000003d0: ef86 81bc 8e2f 9bbc d104 453d 77b4 c73c
000003e0: 29bc ec3c 3bb1 6c3c 089e ed3c 5d56 f8bc
000003f0: 400d 113d 8759 29bc 6262 14bd 1ed9 b5bc
